food_recommendation_model.pth (torch, 18436 bytes, 2 tensors)

fc.weight f4 [4, 1045]
0.1979855 0.18859658 0.17466044 0.19166651 0.14898859 0.17684664 0.17502292 0.15958713
0.17045704 0.1795317 0.20681292 0.20058876 0.22058265 0.21697567 0.19148155 0.20724063
0.16844109 0.14562167 0.19161534 0.17995945 0.18686059 0.17534344 0.16116218 0.21049517
0.2033524 0.19480842 0.154571 0.17678396 0.16873181 0.16014212 0.1716281 0.17184368
0.19427922 0.16201608 0.19913024 0.20409441 0.16824916 0.14258331 0.15124631 0.16550355
0.22306818 0.17972025 0.15687051 0.15356514 0.16183323 0.1555637 0.1607486 0.15696257
0.14256887 0.1559934 0.18328203 0.17945726 0.16337375 0.21235457 0.23091945 0.16599452
0.15948236 0.17471708 0.15633786 0.14644824 0.19136894 0.19656225 0.19009064 0.19228965
0.19388345 0.15948057 0.16428667 0.19708642 0.18240392 0.18733507 0.16201353 0.15669133
0.17247182 0.14811859 0.1945304 0.18006857 0.1807326 0.18265383 0.21189287 0.15128873
0.19853027 0.1826136 0.16923882 0.19409832 0.18494776 0.14797683 0.16913304 0.16311598
0.20343907 0.15558398 0.18871887 0.15996991 0.15330702 0.18804437 0.18437418 0.21772245
0.1685212 0.14573811 0.17763901 0.17763658 0.16819137 0.17955677 0.16953672 0.15523823
0.17443787 0.1678863 0.15202413 0.16189757 0.17853303 0.16948825 0.15832496 0.16551067
0.19929019 0.1834286 0.15051894 0.16669801 0.19553247 0.19164239 0.14885285 0.1636914
0.16447096 0.1972643 0.1565943 0.15526675 0.15076391 0.19472218 0.14654455 0.17182902
0.19541173 0.16855955 0.18487504 0.16133498 0.15156044 0.14081761 0.18646495 0.18834801
0.19661425 0.16324632 0.16761011 0.16883688 0.17180532 0.18881579 0.1695261 0.18664257
0.18769471 0.14245184 0.1671918 0.1710669 0.20551087 0.16360837 0.18147342 0.15227628
0.14427224 0.20207207 0.18175626 0.14167158 0.14691769 0.19765241 0.17047423 0.16227177
0.17294961 0.18354572 0.15005639 0.19388096 0.15764795 0.18430287 0.15611139 0.17744415
0.1958788 0.15030122 0.17304161 0.19316866 0.23705176 0.19784957 0.17200994 0.15969828
0.18623766 0.19846375 0.15989056 0.16977641 0.16924435 0.2142848 0.14906386 0.20242214
0.15027277 0.16786237 0.19081955 0.15377906 0.16522619 0.1499773 0.17126518 0.14426064
0.187166 0.17964713 0.15228319 0.16731739 0.17395589 0.19024602 0.17382583 0.16953053
0.15606086 0.17583545 0.16146651 0.19007622 0.1936553 0.18764687 0.19719961 0.17920636
0.17308591 0.15535338 0.15191284 0.17619157 0.17256445 0.17231186 0.17272146 0.176505
0.21520396 0.16924766 0.1990456 0.1881606 0.16797549 0.18344308 0.1736776 0.19030838
0.15840553 0.14992593 0.18500188 0.1587021 0.15468493 0.14150453 0.16909428 0.19558421
0.18387875 0.17394894 0.15732794 0.19233908 0.18209295 0.17082593 0.1967292 0.17223617
0.17563277 0.15766144 0.20403878 0.16524872 0.19613329 0.18062656 0.17992793 0.15448962
0.18112242 0.15954135 0.1485398 0.16044246 0.17215438 0.17988607 0.17872329 0.16255434
00000000: b6bc 4a3e 761f 413e 30da 323e 3a44 443e
00000010: 7790 183e 4917 353e 3539 333e cf6a 233e
00000020: 4a8c 2e3e 28d7 373e c4c6 533e 2467 4d3e
00000030: 6be0 613e df2e 5e3e bd13 443e e336 543e
00000040: d27b 2c3e d91d 153e d036 443e 4a47 383e
00000050: 6258 3f3e 3b8d 333e b307 253e 0c8c 573e
00000060: 9d3b 503e dc7b 473e dc47 1e3e db06 353e
00000070: 08c8 2c3e 4cfc 233e 47bf 2f3e caf7 2f3e
00000080: 22f1 463e 8be7 253e cce8 4b3e 20fe 503e
00000090: 8249 2c3e 5c01 123e 50e0 1a3e c379 293e
000000a0: fc6b 643e 9608 383e aaa2 203e 2e40 1d3e
000000b0: 9cb7 253e 174c 1f3e 489b 243e ccba 203e
000000c0: 93fd 113e bcbc 1f3e 49ae 3b3e a5c3 373e
000000d0: 734b 273e 7a73 593e 2676 6c3e 78fa 293e
000000e0: 584f 233e 09e9 323e 0817 203e 87f6 153e
000000f0: 38f6 433e 9d47 493e 1fa7 423e 94e7 443e
00000100: 6289 463e e04e 233e c43a 283e 06d1 493e
00000110: 18c8 3a3e c4d4 3f3e e0e6 253e b173 203e
00000120: 749c 303e 66ac 173e fa32 473e e563 383e
00000130: f711 393e 9b09 3b3e 72fa 583e 6feb 1a3e
00000140: 854b 4b3e 0fff 3a3e f14c 2d3e b6c1 463e
00000150: f262 3d3e 3d87 173e 3631 2d3e e007 273e
00000160: 5552 503e 6851 1f3e 853f 413e 27cf 233e
00000170: 84fc 1c3e b48e 403e 96cc 3c3e a2f2 5e3e
00000180: d290 2c3e 5f3c 153e 00e7 353e 5de6 353e
00000190: 5c3a 2c3e bbdd 373e 099b 2d3e c5f6 1e3e
000001a0: d79f 323e 63ea 2b3e 37ac 1b3e 7ac8 253e
000001b0: 5dd1 363e 548e 2d3e f01f 223e a17b 293e
000001c0: ba12 4c3e b5d4 3b3e a321 1a3e e2b2 2a3e
000001d0: aa39 483e e73d 443e e26c 183e b89e 273e
000001e0: 136b 283e a7ff 493e 425a 203e 3ffe 1e3e
000001f0: db61 1a3e 4065 473e c60f 163e f2f3 2f3e
00000200: 031a 483e e09a 2c3e e24f 3d3e ff34 253e
00000210: a932 1b3e 7e32 103e abf0 3e3e 4dde 403e
00000220: 3f55 493e 0b2a 273e fca1 2b3e 93e3 2c3e
00000230: bced 2f3e ed58 413e 4098 2d3e 3b1f 3f3e
00000240: 0b33 403e e5de 113e 5434 2b3e 292c 2f3e
00000250: 7171 523e f488 273e 2bd4 393e 50ee 1b3e
00000260: 1abc 133e fbeb 4e3e 501e 3a3e 5b12 113e
00000270: 9771 163e 6565 4a3e cc90 2e3e 922a 263e
00000280: b419 313e 69f3 3b3e 62a8 193e bb88 463e
00000290: 776e 213e e4b9 3c3e aadb 1f3e ebb3 353e
000002a0: 7494 483e 90e8 193e d231 313e 01ce 453e
000002b0: b2bd 723e 1499 4a3e 6023 303e f287 233e
000002c0: 16b5 3e3e 153a 4b3e 5aba 233e ded9 2d3e
000002d0: 644e 2d3e 7a6d 5b3e 32a4 183e c047 4f3e
000002e0: 1be1 193e 1de4 2b3e 3366 433e 4278 1d3e
000002f0: 0e31 293e a693 193e 2460 2f3e 10b9 133e
00000300: 72a8 3f3e 6bf5 373e 20f0 1b3e 4055 2b3e
00000310: 7e21 323e dacf 423e 66ff 313e 6999 2d3e
00000320: 6bce 1f3e 350e 343e 7a57 253e 57a3 423e
00000330: 934d 463e 8026 403e b2ee 493e df81 373e
00000340: 6f3d 313e f514 1f3e 0a8f 1b3e 906b 343e
00000350: bcb4 303e 8572 303e e5dd 303e babd 343e
00000360: 6d5e 5c3e 424f 2d3e 9cd2 4b3e 2cad 403e
00000370: c401 2c3e 81d8 3b3e 8ad8 313e 33e0 423e
00000380: 0f35 223e 2f86 193e 2271 3d3e ce82 223e
00000390: ba65 1e3e 90e6 103e 0d27 2d3e 3a47 483e
000003a0: b64a 3c3e ac1f 323e 931a 213e 89f4 443e
000003b0: 9376 3a3e feec 2e3e 6173 493e ae5e 303e
000003c0: 14d9 333e 0072 213e 8bef 503e f636 293e
000003d0: 2ad7 483e 2bf6 383e 073f 383e 8732 1e3e
000003e0: 2878 393e cf5e 233e d11a 183e 074b 243e
000003f0: 3d49 303e 0e34 383e 3d03 373e a574 263e

fc.bias f4 [4]
0.14805886 0.021758936 0.011000269 0.023767654
00000000: be9c 173e cc3f b23c 793a 343c 62b4 c23c
